…
2019-11-09 07:54:06.545579: I tensorflow/stream_executor/cuda/cuda_gpu_executor.cc:1006] successful NUMA node read from SysFS had negative value (-1), but there must be at least one NUMA node, so returning NUMA node zero
2019-11-09 07:54:06.546085: I tensorflow/core/common_runtime/gpu/gpu_device.cc:1304] Created TensorFlow device (/job:localhost/replica:0/task:0/device:GPU:0 with 10478 MB memory) -> physical GPU (device: 0, name: GeForce GTX 1080 Ti, pci bus id: 0000:24:00.0, compute capability: 6.1)
Model: "sequential"
_________________________________________________________________
Layer (type)                 Output Shape              Param #   
=================================================================
conv2d (Conv2D)              (None, 86, 86, 30)        1470      
_________________________________________________________________
activation (Activation)      (None, 86, 86, 30)        0         
_________________________________________________________________
dropout (Dropout)            (None, 86, 86, 30)        0         
_________________________________________________________________
global_average_pooling2d (Gl (None, 30)                0         
_________________________________________________________________
dropout_1 (Dropout)          (None, 30)                0         
_________________________________________________________________
flatten (Flatten)            (None, 30)                0         
_________________________________________________________________
dense (Dense)                (None, 2)                 62        
_________________________________________________________________
activation_1 (Activation)    (None, 2)                 0         
=================================================================
Total params: 1,532
Trainable params: 1,532
Non-trainable params: 0
_________________________________________________________________
WARNING:tensorflow:Using a generator with `use_multiprocessing=True` and multiple workers may duplicate your data. Please consider using the `keras.utils.Sequence` class.
Epoch 1/200
2019-11-09 07:54:07.925279: I tensorflow/stream_executor/platform/default/dso_loader.cc:44] Successfully opened dynamic library libcudnn.so.7
…
