…
2019-11-09 03:10:20.191313: I tensorflow/stream_executor/cuda/cuda_gpu_executor.cc:1006] successful NUMA node read from SysFS had negative value (-1), but there must be at least one NUMA node, so returning NUMA node zero
2019-11-09 03:10:20.191809: I tensorflow/core/common_runtime/gpu/gpu_device.cc:1304] Created TensorFlow device (/job:localhost/replica:0/task:0/device:GPU:0 with 10478 MB memory) -> physical GPU (device: 0, name: GeForce GTX 1080 Ti, pci bus id: 0000:24:00.0, compute capability: 6.1)
Model: "sequential"
_________________________________________________________________
Layer (type)                 Output Shape              Param #   
=================================================================
conv2d (Conv2D)              (None, 86, 86, 34)        952       
_________________________________________________________________
activation (Activation)      (None, 86, 86, 34)        0         
_________________________________________________________________
dropout (Dropout)            (None, 86, 86, 34)        0         
_________________________________________________________________
conv2d_1 (Conv2D)            (None, 86, 86, 38)        11666     
_________________________________________________________________
activation_1 (Activation)    (None, 86, 86, 38)        0         
_________________________________________________________________
dropout_1 (Dropout)          (None, 86, 86, 38)        0         
_________________________________________________________________
conv2d_2 (Conv2D)            (None, 86, 86, 42)        14406     
_________________________________________________________________
activation_2 (Activation)    (None, 86, 86, 42)        0         
_________________________________________________________________
dropout_2 (Dropout)          (None, 86, 86, 42)        0         
_________________________________________________________________
conv2d_3 (Conv2D)            (None, 86, 86, 46)        17434     
_________________________________________________________________
activation_3 (Activation)    (None, 86, 86, 46)        0         
_________________________________________________________________
dropout_3 (Dropout)          (None, 86, 86, 46)        0         
_________________________________________________________________
conv2d_4 (Conv2D)            (None, 86, 86, 51)        21165     
_________________________________________________________________
activation_4 (Activation)    (None, 86, 86, 51)        0         
_________________________________________________________________
max_pooling2d (MaxPooling2D) (None, 43, 43, 51)        0         
_________________________________________________________________
dropout_4 (Dropout)          (None, 43, 43, 51)        0         
_________________________________________________________________
conv2d_5 (Conv2D)            (None, 43, 43, 56)        25760     
_________________________________________________________________
activation_5 (Activation)    (None, 43, 43, 56)        0         
_________________________________________________________________
dropout_5 (Dropout)          (None, 43, 43, 56)        0         
_________________________________________________________________
global_average_pooling2d (Gl (None, 56)                0         
_________________________________________________________________
dropout_6 (Dropout)          (None, 56)                0         
_________________________________________________________________
flatten (Flatten)            (None, 56)                0         
_________________________________________________________________
dense (Dense)                (None, 2)                 114       
_________________________________________________________________
activation_6 (Activation)    (None, 2)                 0         
=================================================================
Total params: 91,497
Trainable params: 91,497
Non-trainable params: 0
_________________________________________________________________
WARNING:tensorflow:Using a generator with `use_multiprocessing=True` and multiple workers may duplicate your data. Please consider using the `keras.utils.Sequence` class.
Epoch 1/200
2019-11-09 03:10:21.666060: I tensorflow/stream_executor/platform/default/dso_loader.cc:44] Successfully opened dynamic library libcudnn.so.7
…
