…
2019-11-09 01:44:39.516796: I tensorflow/stream_executor/cuda/cuda_gpu_executor.cc:1006] successful NUMA node read from SysFS had negative value (-1), but there must be at least one NUMA node, so returning NUMA node zero
2019-11-09 01:44:39.517299: I tensorflow/core/common_runtime/gpu/gpu_device.cc:1304] Created TensorFlow device (/job:localhost/replica:0/task:0/device:GPU:0 with 10478 MB memory) -> physical GPU (device: 0, name: GeForce GTX 1080 Ti, pci bus id: 0000:24:00.0, compute capability: 6.1)
Model: "sequential"
_________________________________________________________________
Layer (type)                 Output Shape              Param #   
=================================================================
conv2d (Conv2D)              (None, 86, 86, 55)        1540      
_________________________________________________________________
activation (Activation)      (None, 86, 86, 55)        0         
_________________________________________________________________
dropout (Dropout)            (None, 86, 86, 55)        0         
_________________________________________________________________
conv2d_1 (Conv2D)            (None, 86, 86, 77)        38192     
_________________________________________________________________
activation_1 (Activation)    (None, 86, 86, 77)        0         
_________________________________________________________________
max_pooling2d (MaxPooling2D) (None, 43, 43, 77)        0         
_________________________________________________________________
dropout_1 (Dropout)          (None, 43, 43, 77)        0         
_________________________________________________________________
conv2d_2 (Conv2D)            (None, 43, 43, 108)       74952     
_________________________________________________________________
activation_2 (Activation)    (None, 43, 43, 108)       0         
_________________________________________________________________
dropout_2 (Dropout)          (None, 43, 43, 108)       0         
_________________________________________________________________
conv2d_3 (Conv2D)            (None, 43, 43, 151)       146923    
_________________________________________________________________
activation_3 (Activation)    (None, 43, 43, 151)       0         
_________________________________________________________________
max_pooling2d_1 (MaxPooling2 (None, 21, 21, 151)       0         
_________________________________________________________________
dropout_3 (Dropout)          (None, 21, 21, 151)       0         
_________________________________________________________________
conv2d_4 (Conv2D)            (None, 21, 21, 212)       288320    
_________________________________________________________________
activation_4 (Activation)    (None, 21, 21, 212)       0         
_________________________________________________________________
dropout_4 (Dropout)          (None, 21, 21, 212)       0         
_________________________________________________________________
global_average_pooling2d (Gl (None, 212)               0         
_________________________________________________________________
dropout_5 (Dropout)          (None, 212)               0         
_________________________________________________________________
flatten (Flatten)            (None, 212)               0         
_________________________________________________________________
dense (Dense)                (None, 2)                 426       
_________________________________________________________________
activation_5 (Activation)    (None, 2)                 0         
=================================================================
Total params: 550,353
Trainable params: 550,353
Non-trainable params: 0
_________________________________________________________________
WARNING:tensorflow:Using a generator with `use_multiprocessing=True` and multiple workers may duplicate your data. Please consider using the `keras.utils.Sequence` class.
Epoch 1/10
2019-11-09 01:44:41.009678: I tensorflow/stream_executor/platform/default/dso_loader.cc:44] Successfully opened dynamic library libcudnn.so.7
…
