…
2019-11-09 16:33:37.969654: I tensorflow/stream_executor/cuda/cuda_gpu_executor.cc:1006] successful NUMA node read from SysFS had negative value (-1), but there must be at least one NUMA node, so returning NUMA node zero
2019-11-09 16:33:37.970158: I tensorflow/core/common_runtime/gpu/gpu_device.cc:1304] Created TensorFlow device (/job:localhost/replica:0/task:0/device:GPU:0 with 10478 MB memory) -> physical GPU (device: 0, name: GeForce GTX 1080 Ti, pci bus id: 0000:24:00.0, compute capability: 6.1)
Model: "sequential"
_________________________________________________________________
Layer (type)                 Output Shape              Param #   
=================================================================
conv2d (Conv2D)              (None, 86, 86, 64)        4864      
_________________________________________________________________
activation (Activation)      (None, 86, 86, 64)        0         
_________________________________________________________________
dropout (Dropout)            (None, 86, 86, 64)        0         
_________________________________________________________________
conv2d_1 (Conv2D)            (None, 86, 86, 52)        83252     
_________________________________________________________________
activation_1 (Activation)    (None, 86, 86, 52)        0         
_________________________________________________________________
max_pooling2d (MaxPooling2D) (None, 43, 43, 52)        0         
_________________________________________________________________
dropout_1 (Dropout)          (None, 43, 43, 52)        0         
_________________________________________________________________
conv2d_2 (Conv2D)            (None, 43, 43, 43)        55943     
_________________________________________________________________
activation_2 (Activation)    (None, 43, 43, 43)        0         
_________________________________________________________________
dropout_2 (Dropout)          (None, 43, 43, 43)        0         
_________________________________________________________________
conv2d_3 (Conv2D)            (None, 43, 43, 35)        37660     
_________________________________________________________________
activation_3 (Activation)    (None, 43, 43, 35)        0         
_________________________________________________________________
max_pooling2d_1 (MaxPooling2 (None, 21, 21, 35)        0         
_________________________________________________________________
dropout_3 (Dropout)          (None, 21, 21, 35)        0         
_________________________________________________________________
global_average_pooling2d (Gl (None, 35)                0         
_________________________________________________________________
dropout_4 (Dropout)          (None, 35)                0         
_________________________________________________________________
flatten (Flatten)            (None, 35)                0         
_________________________________________________________________
dense (Dense)                (None, 2)                 72        
_________________________________________________________________
activation_4 (Activation)    (None, 2)                 0         
=================================================================
Total params: 181,791
Trainable params: 181,791
Non-trainable params: 0
_________________________________________________________________
WARNING:tensorflow:Using a generator with `use_multiprocessing=True` and multiple workers may duplicate your data. Please consider using the `keras.utils.Sequence` class.
Epoch 1/200
2019-11-09 16:33:39.394080: I tensorflow/stream_executor/platform/default/dso_loader.cc:44] Successfully opened dynamic library libcudnn.so.7
…
